ddqn.pth (torch_old, 28391 bytes, 6 tensors)

fc1.weight f4 [64, 37]
00000000: 6bad 4b3d 073c a33d d70d bebd 52bb 813c
00000010: 0b9c 8fbe ed1a 103d ce0e 733d 6293 473e
00000020: 98f2 5d3e 4edd 6a3e 24b2 09bd 6b73 34bd
00000030: 32d2 83bd 8604 c6bd 4cf4 39be 7041 833e
00000040: 6029 23bf eccb 4dbe 8f54 89be 2a35 e2bf
00000050: e968 0b3e 1d99 d33d c2ec e23d 076b a53d
00000060: c714 b23d e714 d13b 914e 0d3e 2823 793d
00000070: e9a1 0e3e 6f34 7e3d d186 a3bd f1d2 043e
00000080: 2a4a 6bbb e0f2 98bb 4c02 cebd 6f61 c4bc
00000090: e12c 9f3a 8c61 713e 68c1 e0bb 78fa a9bd
000000a0: 925a 5f3c 7671 d7bd 7f25 2d3d 736c 2ebe
000000b0: 257c 97be c6cc bd3d bff9 bcbe c3cd cd3c
000000c0: d2df a6bc c939 97bc 3821 b63d e2a9 2b3e
000000d0: c9da 123c 9d3e 9dbb c07a eb3d 17d1 b0bc
000000e0: 91ee 40bd d4b0 53be 95bd cbbc a3d5 edbd
000000f0: a7fe 153e d928 7f3d 7e15 15bc c81f d83d
00000100: fc1e c8bc 9311 81be 901d e9be 4fd0 603a
00000110: c0b8 743e 5700 133e b4d1 05be 5224 d43d
00000120: af7b b63c 49db bb3c 510f 213e b4da aebd
00000130: b505 1c3e a777 903d 9613 603e 7d85 e3be
00000140: 78b1 b33d 62c0 d13e 39fe 1d3e 043d b6bd
00000150: 3865 e5bc cf0c 293d 2270 f2bb 0de6 66bd
00000160: 4a56 0c3e c28f d3bd b765 013e c415 ff3b
00000170: d2b6 6d3e db61 4e3e d7fb dabd 9629 86bd
00000180: fe30 1e3d e0dc 6dbd 7164 d3bc 6fc3 80be
00000190: 046b 26bd 6a06 b03e a6ee bf3d 94cf d9bd
000001a0: da6e 99be 720d 51bd f756 613c a1f3 5ebc
000001b0: 539a 143e eae0 36bd 39e0 b4bb ce52 a13d
000001c0: 4a31 043d e0ad ad3d 62bc 0b3e e2d8 d73b
000001d0: f332 4fbe 73bb 41bd f94b 233e bd6a 423e
000001e0: 826e 20bc 780f 973d d997 d2bd 4df6 123e
000001f0: 8f08 16be 4ec3 41be 6f50 59bd 2b4d e5bc
00000200: 0bbd 1abc 84cb 7ebd 3a80 c23d cec3 cd3d
00000210: 26e3 9abb af16 003d 4d9e 043d fa35 1d3d
00000220: 87eb ae3d 70e3 5dbe 84cd 123d f6d5 88bc
00000230: d3e4 aabc 783a 2e3e adb7 2c3e dcb2 333c
00000240: 33c8 8abe 17d7 10bf baa3 db3d 8806 7abc
00000250: 75f0 da3d 6b80 61be d26c 60be 2ad9 80bd
00000260: cff2 98bd 936e ba3e e3a1 853d f31f ddbe
00000270: 10f9 58be 07de 80bf f10c b4bd b99f 40bd
00000280: 3944 7a3d d538 6e3d 1e2d a1bc cc6d 18be
00000290: 73e6 cc3d 6877 15bb 027e 22bd efde 653e
000002a0: c123 05bd 063b 573d 596c 053d 0667 3f3d
000002b0: bfaa 353e ba86 993d 23ea 843b 707c 0fbd
000002c0: 15bb 293e 5627 1a3e b40a dc3d 33e9 bfbc
000002d0: c968 ee3d 0cca 763d b26b 473e 27eb 2abc
000002e0: 802f b03c 7a00 7b3d 6c63 97bd ec10 b83d
000002f0: ecb9 0bbe de4c 5c3d 0702 923e 4d56 843e
00000300: 60db babe c655 02be 8f7d 18bf 6cbd 46bd
00000310: 1fe7 38be 008a 943d 4033 8d3d 708c da3d
00000320: 9aeb 763d 907d 803d 6fe9 00bd 981b c0bd
00000330: 5f57 52be 7a33 3a3e fcd7 133b b12f c93d
00000340: 6f87 2c3e dffe 013e d196 d13d d3c9 0c3d
00000350: d6cd 6abb 51ee 97bd ed4b a8bd 8d37 123e
00000360: 39cc 1abe 89a2 8ebd 556c 3d3d 6aec 5ebe
00000370: 460e c83d a9a2 043d 1cc3 21be d77e 1c3e
00000380: fe35 a5bd f697 c63d f6e1 81be 2ff8 fbbd
00000390: cff4 35be 7458 033e 358c cc3d f7ae 533e
000003a0: c354 39be 481e 3c3e 9d14 293e 2b4a be3b
000003b0: 8bb2 ec3d f313 bbbe 4adc 823d 780d d93d
000003c0: 3464 963d 1f22 08bf 167e 79bd e86a a63d
000003d0: 6bd1 a03d 2476 5ebe 4824 643e d939 3abe
000003e0: 1447 d0bc ecd9 b13d c8d8 80be 72f8 c3bc
000003f0: 9699 83b9 6e3c abbd cde4 443d 3cac a33b
0.04972593 0.07970434 -0.092799835 0.015836392 -0.2804874 0.03518193 0.05934029 0.19489816
0.21674573 0.22935984 -0.033617154 -0.044055384 -0.06436576 -0.096688315 -0.18159598 0.25635862
-0.6373501 -0.20097321 -0.26822326 -1.7672474 0.13614239 0.103319384 0.11080314 0.080770545
0.08695369 0.0063806656 0.13799502 0.060824543 0.13928951 0.062061723 -0.079846986 0.12971093
-0.003590236 -0.004667625 -0.10059032 -0.023972241 0.0012144112 0.23572367 -0.0068589933 -0.08299726
0.0136324335 -0.10519688 0.042272087 -0.17033558 -0.29586902 0.09267573 -0.3690929 0.025122529
-0.020370398 -0.018460171 0.08893055 0.16764024 0.008963295 -0.004798724 0.11498022 -0.021584077
-0.047102515 -0.20672923 -0.024870673 -0.116130136 0.14647923 0.062294815 -0.009099362 0.10552937
-0.024428837 -0.2520872 -0.45530367 0.0008575962 0.23898602 0.14355598 -0.13068277 0.1035849
0.022275774 0.022931712 0.15728499 -0.08537808 0.15236552 0.07054072 0.21882471 -0.4443778
0.08774084 0.4096709 0.1542901 -0.088983566 -0.028002366 0.04127198 -0.007398621 -0.056371737
0.13704792 -0.10330154 0.12636457 0.007784577 0.23214272 0.20154516 -0.10692566 -0.06550901
0.03862094 -0.05807197 -0.02580473 -0.25149104 -0.0406294 0.34379894 0.093716905 -0.106352955
-0.29967386 -0.051038213 0.013753644 -0.01360789 0.14511995 -0.04464809 -0.0055198935 0.07877122
0.03227357 0.0848043 0.13646081 0.0065871337 -0.2023428 -0.047297906 0.1594695 0.1898603
-0.009791972 0.07375997 -0.10282869 0.14351769 -0.14651702 -0.18922159 -0.053055223 -0.027990898
-0.009444485 -0.062205806 0.094971135 0.100471124 -0.0047267852 0.031271633 0.03237753 0.038381554
0.08541017 -0.21668792 0.035840526 -0.016703587 -0.020861065 0.17014492 0.16866942 0.010967936
-0.27105865 -0.565782 0.10724588 -0.015260346 0.10690395 -0.22021644 -0.21916512 -0.06291421
-0.07468187 0.36412486 0.06525018 -0.43188438 -0.2118876 -1.0067757 -0.08791531 -0.047027323
0.06110022 0.058159668 -0.019674834 -0.14885634 0.10004892 -0.0022806767 -0.03967095 0.22448324
-0.0325048 0.052546524 0.03257403 0.04672911 0.17740916 0.074964 0.0040562316 -0.035030782
0.16575272 0.15054068 0.10744229 -0.023426628 0.1164108 0.06025128 0.19474676 -0.010432041
0.021507025 0.06127975 -0.0739201 0.089876026 -0.13645142 0.053784244 0.28517172 0.25847092
-0.36495495 -0.12728032 -0.5956659 -0.04852049 -0.18056916 0.07252884 0.06894541 0.106713176
0.06028328 0.06273949 -0.03147262 -0.09380263 -0.20541142 0.18183699 0.0022559157 0.098235495
0.16848539 0.12694882 0.10233844 0.034372162 -0.0035828254 -0.07418502 -0.08217607 0.14279003
-0.15116967 -0.06964595 0.04624589 -0.21769872 0.097683474 0.032381687 -0.15797085 0.1528276
-0.08066939 0.09696953 -0.25367707 -0.12303197 -0.17769168 0.12826711 0.0998768 0.20672213
-0.1809874 0.18370926 0.1651177 0.0058071814 0.11557492 -0.36538658 0.06389673 0.10598272
0.07343331 -0.53177065 -0.06091126 0.081258595 0.07852443 -0.21724755 0.22279465 -0.1818613
-0.025424518 0.086841434 -0.2516539 -0.023922179 -0.00025100698 -0.083611354 0.048069764 0.004994897

fc1.bias f4 [64]
00000000: 0ba7 4d3e 747a 6abd e57e 31be 763a 23bd
00000010: 61cc 513e 5ea3 533c d721 a4bd f4bd 0d3d
00000020: 0a93 863c 2b45 debd 83ce 0a3e 9fa3 083e
00000030: 849f 143e 8542 843d 689b 2f3c d6b9 58bd
00000040: 302f cebc 177c 1abd a72e 8ebc 3cd5 3ebe
00000050: 4b61 68be 1a20 4d3d e48d aebc 5772 26be
00000060: 7468 02be be14 863e 0848 8bbc e7eb 08be
00000070: 1809 1c3e 6a3c 013e 5bfd a6bd 0826 09be
00000080: 5c39 d83d 0d88 e2bb 01a1 0fbe 7b08 faba
00000090: 9c97 a0bd fd35 4f3d f7ce 2ebc 38a4 37bd
000000a0: 3cc7 a1bd 3587 8abc 6aa9 16be 26e2 6b3e
000000b0: 72db 253d 4085 b0bd 87d3 963d b5b0 d3bd
000000c0: 2087 d5bd dc57 123e b0bc fcbd 4ccc 333b
000000d0: 806b bb3a 5875 24be 58d5 0ebe 500a 873d
000000e0: 9571 ef3d ed8a cfbc 28cb c2bd 480a 1bbe
000000f0: ea02 0e3d c470 403d 9710 993d 45b4 603d
0.20083253 -0.057245687 -0.17333563 -0.039850675 0.2048812 0.012917368 -0.08014267 0.03460498
0.016427536 -0.108530365 0.1355534 0.13343666 0.14513975 0.06458 0.010718204 -0.052911602
-0.025168985 -0.037715998 -0.01735623 -0.1863603 -0.22693364 0.050079443 -0.021307893 -0.16254555
-0.12735158 0.261877 -0.01700212 -0.1337124 0.15237844 0.12620702 -0.081537925 -0.13393414
0.105578154 -0.006913191 -0.14026262 -0.0019076014 -0.07841417 0.050588597 -0.010669461 -0.044834346
-0.07899329 -0.016910175 -0.14713064 0.23035488 0.040492482 -0.086191654 0.073645644 -0.103364386
-0.10426164 0.14291328 -0.12340677 0.0027435003 0.0014299005 -0.16060388 -0.13948572 0.06593764
0.11691586 -0.0253348 -0.09511405 -0.1514064 0.034670748 0.04698254 0.074738674 0.05485942

fc2.weight f4 [64, 64]
00000000: 55a1 91be 218d 3fbe 4c54 0d3e 5364 ec3d
00000010: 2329 713e 606a 82bb ae5f 5dbd 76e2 35bd
00000020: eb31 f0bd 083a aa3d f756 7fbc b0d1 57bc
00000030: 8b55 84be 1ea7 da3d c97c eebd 396c 89bd
00000040: bc2a ddbe ac0f a43b 1e26 acbd 4313 033e
00000050: 301d 8cbd 2ec1 c53d 4bca 57bd 2951 ccbd
00000060: 6142 dcbd c868 35bd 757d 61bd 95a8 c4be
00000070: 2b01 a83b 0c98 c6bc 9295 2b3d 58db 55bd
00000080: bad2 a9bd 7584 fd3d 3f7d 40bd 32f9 d4bd
00000090: 98c2 90bc 7864 66bd 5737 1fbe e7dc 62bc
000000a0: 2e52 25be 1cea 513d 4c94 b13c 20cd bfbd
000000b0: 1c94 9e3c fbf6 fe3c 4532 82be 38ec ebbd
000000c0: 2e07 c4be 6556 d63d e7b9 98be c925 9c3c
000000d0: 89ad 7ebe 9db6 3c3d f22b b33d 0a52 99be
000000e0: 82ee cebd dc5a fabd 4dbd eabd 2b2e cf3d
000000f0: 4b6c dfbd 82b0 343e 8367 f7bd 4185 333e
00000100: 5683 e6bd 3e93 c63d 5952 943d d445 163b
00000110: e6d2 263e d442 5a3d 5513 cbbe 9c32 93bb
00000120: 8593 b1bd 7ff4 beba d299 55be 9c20 8a3e
00000130: cfa8 7bbe 624f 963d 1c13 823d 4a1e ea3d
00000140: 0586 593d 3331 c93d 5d7e 72bd dfb7 c2be
00000150: abdd 1bbd 2ea2 a0bc 0d75 543e 1008 28be
00000160: 4fe0 28bd dfc7 093e 6822 c4be d201 44be
00000170: 7406 393e 7f34 633d 5a34 08be aaef eabe
00000180: 02fe 55be 0a55 b7bc a482 c5bd c598 9c3d
00000190: 58d0 023e 0de0 063e bae8 b5be 29e0 573b
000001a0: a6ec 243d 847e 68be 7b14 9cbd 0709 afbe
000001b0: 5045 a9bd 87fe a0bd 4a9d 06be 75fd 27bd
000001c0: fb4f 0ebd 6b25 0cbe 45c3 09be d7d9 703d
000001d0: cbf5 f4bc 0516 d3bd a90e 81be 58e0 2bbd
000001e0: 0572 40be 0f89 e2bd 8959 76bd ca89 583e
000001f0: 1b68 5bbe 4461 25be af96 333b c53a 013d
00000200: 3ae8 31be 8e72 c0bd 479a 0fbe fa21 b43d
00000210: 5040 1b3d a069 903d 4075 64bd e4c0 c7bd
00000220: 2406 193e c10b 02bd c02c 0fbd 0a93 9e3d
00000230: 6aab 9fbd e1d9 b63d 5640 d0bd 71d3 96bc
00000240: 649d 86be cf7e 3e3e ce41 963b ef29 f6bd
00000250: b1bf 39be 070e bdbc c375 9abc 16d3 9ebc
00000260: e9a8 b7bd becc 323e ab34 c23d f392 fc3d
00000270: 5f05 5bbd 7ec1 693e f354 83be 5b63 a7be
00000280: 5c30 833c 22c8 c5bc b83f 0cbe 9dea 9e3b
00000290: 1262 b9bc bdd2 133e 984b 84bc 85cc 393d
000002a0: 8522 c93d ab9c 52be b334 abbc e7b0 09be
000002b0: e494 19bd 2188 ecbd b47b 583d e556 68be
000002c0: 4bd7 6c3d 7a57 51bd 325d b3bd c8e3 a33d
000002d0: 0575 30be 0865 fa3c 1e22 31be b86d 4f3d
000002e0: e6b0 dbbd a071 a7bc e996 773d a7ff 433e
000002f0: d659 a5bd 9276 a3bb ce66 873e 3ddb 15bd
00000300: 785c 99bd c2ac a5bd 0098 d83d 3442 233d
00000310: 6b44 04be 2cd5 1bbe 060d 38be 1737 71bd
00000320: 7b9a 15be fb69 df3d 425c 2cbd 2b77 7f3e
00000330: 1d1d 01bf bf17 4a3c 106f 9f3d 03fe 4cbe
00000340: 0e92 e7bd 85a4 903d 9bec d63c 3082 71be
00000350: 3840 3d3e a9b8 893d b2e4 ffbd cab5 0fbe
00000360: 7f4c 013e 7825 cdbd bd95 d93d e9d0 1fbe
00000370: 399c 083e 6da1 babe 3649 433d 8b5e ca3d
00000380: 6619 edbd 2145 003e 2306 60be 9b6a 0d3e
00000390: 6a4b 3ebe aca1 ef3d 7183 b13e 46a9 2d3e
000003a0: 76e8 02be b453 e13d 0613 f1bd c771 23bd
000003b0: 1de5 05be 4041 fc3c 0deb f1bd 64c7 a1bd
000003c0: 04e5 71bd e42a 04bd 443a d7bd 9258 ea3d
000003d0: 8cff 243d 03ff b73e 5012 cb3d 009b e43d
000003e0: bb0b b2bd ee77 033d a633 fcbe 6e4a e73b
000003f0: 95bd b3be dbcd bf3d f0bc 9fbe 6fa0 99be
-0.284434 -0.1870618 0.13801688 0.11542573 0.23550849 -0.003979966 -0.054046325 -0.044405423
-0.11728271 0.0831185 -0.015584699 -0.013172552 -0.25846514 0.10676406 -0.11644895 -0.06710095
-0.43196666 0.005006751 -0.08405708 0.12800317 -0.068415046 0.09655987 -0.052683156 -0.099764176
-0.10754848 -0.04428938 -0.055051286 -0.38409868 0.0051270924 -0.024242423 0.04189069 -0.052211136
-0.08292146 0.1237878 -0.046994444 -0.10399093 -0.017670915 -0.05624816 -0.15548454 -0.013846613
-0.1614463 0.051248655 0.021677159 -0.09365296 0.019357733 0.031123629 -0.25428978 -0.115196645
-0.38286728 0.10465697 -0.29829332 0.019060986 -0.24870886 0.04607259 0.08748616 -0.29945403
-0.101040855 -0.12224361 -0.114618875 0.10116228 -0.10909327 0.17645457 -0.1208029 0.17531301
-0.11255519 0.09696053 0.07242269 0.0022929804 0.16291389 0.05328639 -0.39663187 -0.004492117
-0.08670715 -0.0014568715 -0.20859459 0.26978004 -0.24576114 0.0733936 0.06351301 0.114315584
0.053106327 0.09823837 -0.05920254 -0.38030908 -0.038053196 -0.019608583 0.20747776 -0.16409326
-0.041229542 0.13455151 -0.383075 -0.1914132 0.18068868 0.055469986 -0.1330122 -0.45885974
-0.20897678 -0.022379417 -0.09644058 0.07646326 0.1277479 0.13171406 -0.3552912 0.0032940006
0.040264748 -0.22704512 -0.07621094 -0.34186575 -0.082651734 -0.07861047 -0.13145939 -0.0410132
-0.034744244 -0.13686149 -0.13453396 0.0588015 -0.02990236 -0.10306934 -0.25206497 -0.041961998
-0.18793495 -0.11061298 -0.06014398 0.21146312 -0.21426432 -0.16150385 0.0027403047 0.031550188
-0.17373744 -0.093968496 -0.14023696 0.08795543 0.03790313 0.07051396 -0.05577588 -0.09753588
0.14943749 -0.03174949 -0.034954786 0.07742889 -0.077963665 0.08928276 -0.10168521 -0.01841137
-0.26291955 0.18603061 0.0045854812 -0.12019717 -0.1813953 -0.023077978 -0.018854981 -0.019387763
-0.08967764 0.17460915 0.09482702 0.12332716 -0.05347192 0.22827718 -0.2565075 -0.3269299
0.01601427 -0.024143282 -0.13696182 0.0048497454 -0.022629771 0.14435859 -0.016149327 0.04536106
0.09821037 -0.20567577 -0.020899152 -0.13446389 -0.03749551 -0.11549402 0.052852347 -0.22689398
0.057822507 -0.051108815 -0.0875801 0.0800243 -0.1723214 0.030565754 -0.17298171 0.050641745
-0.107271 -0.020439923 0.060446654 0.19140492 -0.080737755 -0.0049885 0.2644562 -0.036586035
-0.0748834 -0.080895916 0.10575867 0.039858058 -0.12916724 -0.15218037 -0.17973718 -0.05889043
-0.14609711 0.10908886 -0.04208017 0.24947803 -0.5043505 0.012334763 0.07784855 -0.20018773
-0.113071546 0.070626296 0.02623587 -0.23584819 0.18481529 0.06724674 -0.12494792 -0.14034191
0.12626837 -0.10016912 0.106242634 -0.15607037 0.13340844 -0.36451283 0.04767724 0.09881314
-0.1157711 0.1252637 -0.21877341 0.13810198 -0.18583456 0.11700758 0.34670594 0.16959104
-0.1278399 0.11002293 -0.117712066 -0.03990343 -0.13075681 0.030792832 -0.118124105 -0.07899359
-0.059056297 -0.032267466 -0.1050916 0.11442675 0.04028277 0.35936746 0.09915602 0.111623764
-0.08693644 0.032096796 -0.49258155 0.0070584333 -0.35105577 0.09365436 -0.31198835 -0.30005214

fc2.bias f4 [64]
00000000: 0943 70bd 26ac 31be d9f6 073d 0ce0 af3c
00000010: 772c 063e c1ae 33be c37d 27be 3a46 c03c
00000020: e8dd 813c 8d94 aa3e e11b 96bd dbce 003e
00000030: c353 393e 5034 a8bd 6675 96bc 83ae 9fbd
00000040: 4757 3bbd a0a3 30bd 80d5 a8bd ba3a 203e
00000050: bb8a 123e 9180 d23e 93cc 8b3c f093 e4bd
00000060: 97b9 77bd 1549 9ebd fafd 0b3d 3ce8 8ebd
00000070: 44bd b2bd c872 d53d f2d8 f23c c6b6 10be
00000080: 1cde 8dbc 3f8a 143e 3b26 2d3c a943 86bd
00000090: d5d2 ebbc 9441 ffbd ba19 67bd 31d9 efbc
000000a0: 41a2 11be 6494 a23e 482c 5c3e a01d 3dbd
000000b0: 535b 0ebc 46ee a1bd c1fe fdbd 49bc 0bbe
000000c0: 575f 3d3d 4ce0 3cbd d9d1 8fbd 875e 673e
000000d0: e67f 9ebc 4c82 52bd 8e36 ae3d eee9 04be
000000e0: c126 45be d498 cbbd 3c27 0cba 660f 84bd
000000f0: f964 803d 2ea6 533d 6984 993d ce7b d9bd
-0.05865768 -0.17350826 0.033194397 0.021469139 0.131029 -0.17547132 -0.16356568 0.023470987
0.015852883 0.3331646 -0.07329536 0.12578909 0.18098359 -0.08213103 -0.018366527 -0.07796957
-0.04573753 -0.043124795 -0.08243847 0.15647402 0.14310734 0.41113713 0.017065322 -0.11161029
-0.060479727 -0.07728783 0.034177758 -0.06977889 -0.08727506 0.104222834 0.029644463 -0.14132223
-0.017317824 0.14505862 0.010568197 -0.06555874 -0.028787056 -0.1246368 -0.05642102 -0.02927837
-0.14222051 0.31753838 0.21501267 -0.04617083 -0.008688766 -0.07906775 -0.12402106 -0.13646044
0.0462335 -0.046112344 -0.07022447 0.22594653 -0.019348096 -0.051393792 0.08506499 -0.12979862
-0.19253065 -0.09941259 -0.00053464225 -0.064482495 0.06269259 0.051672153 0.07495958 -0.10619317

fc3.weight f4 [4, 64]
00000000: f88c 203e 4e9b 20be 0270 343d 87fd 923c
00000010: 852a da3d 2c4a 1dbd 9373 24be b263 02be
00000020: 33d2 473d 2f58 ec3d c595 0fbd f6d2 2d3d
00000030: 55cc ee3d 70b0 36bd 979a 8dbe 2150 1abd
00000040: 04e7 29be f50c a53e ad20 9e3d f5f1 8a3e
00000050: 04b7 e93d 6ecb 0a3e 3650 653e fa96 06bd
00000060: 3c62 aabe 7dbe 83bb ec38 8dbe 03bb 0cbe
00000070: dfcd 34be 1bf6 393e e13d 7fbe b2f5 ae3c
00000080: eab9 353d 97ac 753e dd75 bb3e 81ed f9be
00000090: 0eb5 863e 2ae5 a7bd 0baa f8bd 47da 203e
000000a0: 3203 aa3e eafb 043e da58 8cbc 1e4d 323e
000000b0: 9926 81ba a07e 623c 64ba f43c e8c1 453e
000000c0: b49d 87bc 0544 5e3e 57d3 83bc 09b3 2b3e
000000d0: b02f 043e 29b0 35be 5128 f43d deaf b2be
000000e0: 1db7 3fbe 0e26 363e 2fdf 7ebe 2fc2 da3d
000000f0: 7207 b3be 024f 2b3e 50e8 063c 5947 f43d
00000100: 5a7f 8a3d b07a a3bd 4186 ff3d 7ebe 063e
00000110: 1940 c3bd bc21 02bd 9026 68bd 47f3 ecbd
00000120: dc71 dbbd b3a4 063e dddc 52bd e2f4 ef3d
00000130: 5a6c 8f3d bf78 9dbc ab77 2dbd c84c 8bbc
00000140: 210d 34be 4606 b13e 58dc 6cbd 6c6c 0e3e
00000150: 46d4 163e a2d4 fc3d c81b 9d3e 089e cb3d
00000160: 4abc 7f3d bb24 85bc cdf5 bebd 3fee 6ebd
00000170: 1e01 adbe 46c6 183d 17cd db3d eb9b 063e
00000180: 12bb 5dbd be75 3f3e c0a3 ea3e 9b02 c7be
00000190: 9661 843e a1e2 94bd 1463 2a3d f406 093e
000001a0: b405 ccbd c3d0 263e 24bd 693d 00fa 2d3e
000001b0: b610 6dbe 118d fa3c c06d 963d 9680 16bd
000001c0: c3ff fabc d00f 463e b988 bebd 9fcb b53d
000001d0: 6382 fe3d 9d22 133d 60fe 853d aa2c 7bbe
000001e0: dd47 13bd a6ad 94be cedf e53e 0437 a03d
000001f0: 4dbd 0bbe 6b86 503e d460 0bbe 485a f63d
00000200: 18a5 63be 1d84 9c3e 6c55 383e 9c63 133e
00000210: 9082 a13e 5ad4 85ba 187b 3a3e 0704 0a3e
00000220: 8530 863d 9de3 da3d ab31 40be 8309 8e3e
00000230: d765 2e3e d2b3 01bf b368 80be 713b f13c
00000240: 2f65 a0bd 7e94 1f3e a014 92be 8837 1f3b
00000250: 0554 f33d fea1 423e 147e d5bd cb51 a23c
00000260: 27b8 293d 49e1 5fbe 331d a8bb 3bd5 c2be
00000270: 9bb8 1cbd a5a5 833e dabb 03be a05a aebd
00000280: 721d 89be 7a42 0f3e 64fd 003f dbfe e73d
00000290: 181d ab3c d35f 21bf bc2e e63d d03b 813d
000002a0: 273c c13d 6e49 063e a6db e33d c929 143e
000002b0: daac cabd e4bb 213d 2a53 c63e 43eb b33e
000002c0: b835 583e c08c 363e 8c53 d4be 6de4 0f3e
000002d0: 0d0e 2a3d 964f 29be 379b 163e 83fb a03d
000002e0: 7482 22be 3541 8dbe f475 85be e43d 1b3e
000002f0: 14c4 81be 6287 433e 87f2 17bf 4c5a ae3d
00000300: a3da 373e a07c a23e d0ce a43d 806b f0be
00000310: 4cbb 243e e7a8 5b3b ed2b 943e 6ef8 5c3d
00000320: 5240 f63d 199e 2e3e 0dc1 793c 731e 993d
00000330: d00a c13d 544c a1bd 38b9 ef3d d25a 27be
00000340: 7da7 ae3d 954c 9e3e 9532 e2bd adb0 d03d
00000350: 9586 2b3d 516a 163e c7ce 55bc a7b7 873d
00000360: 5ab5 e1bd 8405 efbe 28aa 4cbe 31a8 4dbe
00000370: a6a5 cebd b9b8 a43d c8a6 babe 6288 8f3e
00000380: 83ff 7d3e 6a0b 863e 6694 4bbe d0c0 9bbd
00000390: 3a33 fcbd ba23 083d d1be 2c3e b2ba 4e3e
000003a0: 04aa 05bf 64ca 0a3e 0a1e 093e b7b8 053e
000003b0: 47fe a73e 62ba 05be 7909 363d a9fc 26be
000003c0: 4b16 71bd 8d7c a83d e86b 17be 2ee5 533e
000003d0: 6265 bfbd 9423 733e 782b e13d 61a4 a03e
000003e0: d8fe 89be f9b4 bbbd 224b a13d 48cd 0f3e
000003f0: aef0 44be abcd 4e3e 7ae9 8a3e 26c5 e33d
0.15678775 -0.15684244 0.04405213 0.017943157 0.10652641 -0.038400814 -0.16059713 -0.12733343
0.048784446 0.11540257 -0.03505494 0.042437516 0.11660067 -0.044601858 -0.27657005 -0.037674073
-0.16592032 0.32236448 0.07721076 0.27137724 0.114118606 0.13554165 0.2239388 -0.032858826
-0.33278072 -0.0040205107 -0.2758249 -0.13743214 -0.17656659 0.18160288 -0.24925949 0.021357391
0.044366755 0.23991619 0.3661336 -0.48814014 0.2631001 -0.081980065 -0.12141808 0.15708266
0.33205563 0.12986723 -0.017132211 0.1741223 -0.0009853422 0.013824135 0.029874034 0.1931225
-0.01655469 0.21705635 -0.016091986 0.16767515 0.12908816 -0.17742981 0.11921752 -0.348998
-0.18722196 0.17787954 -0.24889825 0.10681569 -0.34966618 0.16729358 0.008234099 0.11927671
0.06762572 -0.07982385 0.12476779 0.13158605 -0.0953371 -0.031770453 -0.0566774 -0.11569839
-0.10715076 0.13148765 -0.051480163 0.117166296 0.07003088 -0.019222615 -0.042350452 -0.017004386
-0.17583133 0.345751 -0.057827324 0.13908547 0.14729413 0.12345244 0.30685258 0.099422514
0.062435426 -0.016252866 -0.093242265 -0.058332678 -0.33789915 0.037298463 0.10732477 0.13145415
-0.054133482 0.18697259 0.45828056 -0.38869175 0.25855702 -0.072697885 0.041598395 0.13381559
-0.09962025 0.16290574 0.057065144 0.16989899 -0.23150906 0.030584844 0.07345152 -0.036743723
-0.030639535 0.1934197 -0.093034215 0.08876728 0.12427213 0.03592168 0.06542659 -0.24528757
-0.035957206 -0.29038733 0.44897312 0.078229934 -0.13646431 0.20363776 -0.13611156 0.120289385
-0.22230947 0.30569544 0.18001336 0.14393467 0.31544924 -0.001021038 0.18211019 0.13478099
0.06552223 0.10687945 -0.18768947 0.27741632 0.17031036 -0.5066501 -0.2507988 0.02944729
-0.07831799 0.15583989 -0.2853136 0.0024294574 0.1188126 0.19007108 -0.10424438 0.019814393
0.041435387 -0.21863283 -0.005130434 -0.38053307 -0.03826199 0.25712314 -0.12864628 -0.08513379
-0.26780277 0.13990203 0.50386643 0.11327907 0.020887896 -0.6303684 0.112393826 0.063102365
0.09435301 0.13113949 0.11125879 0.14469065 -0.0989625 0.039485827 0.38735324 0.35140428
0.21114242 0.1782713 -0.4146999 0.14051981 0.041517306 -0.16534266 0.14707647 0.07860472
-0.15870076 -0.27588812 -0.26066554 0.15160328 -0.25344908 0.19094613 -0.5935444 0.085133165
0.17954497 0.31735706 0.08047259 -0.46957016 0.16087073 0.0033517422 0.28939763 0.05394786
0.12023987 0.17052497 0.015243781 0.07476511 0.094258904 -0.078758866 0.117052495 -0.16343239
0.085280396 0.30917802 -0.11044804 0.10189948 0.041876394 0.14688994 -0.013049788 0.06626826
-0.11020918 -0.46683896 -0.19986784 -0.20083691 -0.10090189 0.080430456 -0.3645537 0.2803374
0.24804501 0.26180583 -0.19880828 -0.076051354 -0.12314458 0.033237197 0.16869666 0.20188406
-0.5221255 0.13553768 0.13390365 0.13058744 0.32811186 -0.1305938 0.044442628 -0.1630732
-0.05885915 0.08226881 -0.14787257 0.20692894 -0.09345509 0.2374404 0.10994619 0.3137541
-0.26952243 -0.09165377 0.078756586 0.14043152 -0.19232437 0.20195644 0.27131253 0.111215875

fc3.bias f4 [4]
00000000: 3f60 623e 7e4d 3b3e c8fb 1a3e 275a 153e
0.22107027 0.1829128 0.1513511 0.14585172
